pytorch-model.pth (torch, 250951 bytes, 10 tensors)

conv1.weight f4 [6, 3, 5, 5]
0.6744128 -0.07961495 -0.15203401 -0.4025994 0.3003441 0.88795537 -1.3919448 0.24921112
0.12198002 0.046175882 -0.014347969 -1.2396284 1.4953661 0.3581655 -0.4072791 -0.429381
-0.38249022 1.1961032 -0.3685664 -0.22776552 0.1071225 -0.05116034 0.5620206 -0.42149046
-0.19276308 0.41695392 -0.5354798 -0.16885404 -0.14891565 0.09895559 0.46188745 -1.7544192
0.3838819 0.66299975 0.28592336 -0.5117973 -1.5966308 1.5225961 0.5752131 -0.18539849
-0.73750395 -0.5637197 1.2791418 -0.11242078 -0.023977604 -0.16073975 -0.38193467 0.75510603
0.115068994 0.16799717 0.15998398 -0.38295916 -0.06118135 -0.033919446 0.27717036 0.31569073
-1.6019312 0.5020604 0.66931987 -0.06347266 -0.22602475 -1.2291409 1.5383384 0.5181018
-0.52753854 -0.24371797 -0.30055878 1.3902165 -0.30490613 -0.41572785 0.2435195 -0.24536787
0.65130484 -0.18320943 -0.22667806 -0.26943982 -0.75905645 -0.6002589 -0.4080303 -0.5795711
0.053194795 0.31735513 -1.1739262 -1.5248461 -0.20742427 -0.2800367 1.0785167 0.966922
0.8183689 0.3196027 0.1715551 -0.75846535 0.6044782 0.32945842 -0.037679702 0.42094505
-0.25147602 -0.25701487 -0.21884799 -0.06477003 0.32900614 0.10802527 0.5052015 0.5680508
0.39379677 0.25684974 0.6468465 -0.69447 -0.8408525 0.6431037 -0.49126914 1.0053084
1.2022811 1.2508004 0.8342977 -0.18968686 -0.9279818 0.615903 0.6332697 -0.120396405
0.3719501 -0.40565076 -0.4496959 -0.24640797 -0.048569772 0.11865885 -0.36268008 0.0099418545
0.19884881 -0.1359216 -0.12329423 0.41415173 -1.1690898 -1.364199 -0.012285023 -0.59875566
0.6490419 0.6557171 0.7171262 0.21601023 -0.04878572 -0.9911128 0.25037986 -0.08500317
-0.5242296 0.42784867 -0.0755904 -0.24107584 -0.25584266 -0.23865901 0.8386897 1.0530077
1.2384553 1.0396776 0.63641024 0.36007246 0.26972005 0.2742207 0.44668728 0.5169847
0.27531937 -0.077890046 -0.085272275 -0.042861205 -0.045043446 -0.2859756 -0.5433473 -0.3714431
-0.307099 -0.4588004 -0.6451302 -0.9112101 -0.7052635 -0.71411186 -0.7502501 -0.11201795
-0.09723689 0.19998533 0.16762486 -0.032875523 -0.60952353 -0.83933896 -0.912384 -0.72169614
-0.269836 -0.1923078 -0.6150568 -0.34600547 -0.4083221 0.04222046 0.14225478 -0.1442202
0.43683735 0.11579737 0.20190132 -0.033358954 0.05957606 0.53533804 0.11088467 0.021105342
0.42766994 0.20116222 0.35609043 0.30317503 0.31714016 -0.48589692 -0.61935574 -0.89129305
-0.6582249 -0.07395009 0.048300963 -0.32360747 -0.32565704 -0.32248282 0.034142844 0.37116382
0.22989978 0.6344275 0.3813267 0.44448236 0.023293277 0.30599108 0.53999746 0.23641233
0.085925795 0.00954306 0.08321907 0.27967602 0.2872207 0.3560206 -0.28487954 -0.36728454
-0.09782659 0.121599644 0.15999182 -0.22932865 -0.7506371 -0.4940321 -0.32053888 -0.23162118
-0.30475408 -0.6764448 -0.69596744 -0.41186103 0.110153496 -0.14118242 -0.40393227 -0.13199817
0.1817156 0.10493397 -0.13762797 -0.14468366 -0.0097288955 -0.037242334 -0.10987544 -0.28823927
00000000: 51a6 2c3f 2a0d a3bd ceae 1bbe 8221 cebe
00000010: b4c6 993e 0b51 633f 3f2b b2bf 3331 7f3e
00000020: a9d0 f93d ec22 3d3d be13 6bbc 25ac 9ebf
00000030: 2868 bf3f 7861 b73e e386 d0be d4d7 dbbe
00000040: c2d5 c3be e919 993f bcb4 bcbe 5d3b 69be
00000050: 0b63 db3d 818d 51bd 95e0 0f3f 99cd d7be
00000060: af63 45be fc7a d53e 3415 09bf 13e8 2cbe
00000070: 587d 18be 3aa9 ca3d 837c ec3e cf90 e0bf
00000080: 2b8c c43e 5aba 293f 8c64 923e 2605 03bf
00000090: 665e ccbf 6ee4 c23f 2a41 133f 1ad9 3dbe
000000a0: 0fcd 3cbf ef4f 10bf ebba a33f de3c e6bd
000000b0: ae6c c4bc f698 24be f18c c3be a14e 413f
000000c0: 4ba9 eb3d 7307 2c3e d7d2 233e 3913 c4be
000000d0: 4c99 7abd 1eef 0abd 46e9 8d3e 37a2 a13e
000000e0: 150c cdbf 0887 003f 8c58 2b3f f4fd 81bd
000000f0: 0873 67be 7d54 9dbf 46e8 c43f 52a2 043f
00000100: c40c 07bf 3491 79be d7e2 99be 9df2 b13f
00000110: a81c 9cbe 48da d4be 2d5d 793e b741 7bbe
00000120: eabb 263f 419b 3bbe 4b1e 68be 04f4 89be
00000130: 8651 42bf 91aa 19bf 59e9 d0be c65e 14bf
00000140: c9e2 593d 5f7c a23e 3743 96bf 282e c3bf
00000150: 0767 54be f860 8fbe d60c 8a3f 3388 773f
00000160: a080 513f f7a2 a33e 24ac 2f3e c92a 42bf
00000170: 15bf 1a3f c6ae a83e 0856 1abd 1c86 d73e
00000180: 77c1 80be 7497 83be b019 60be 26a6 84bd
00000190: 7e73 a83e 5a3c dd3d e354 013f c76b 113f
000001a0: bb9f c93e cf81 833e bb97 253f c9c8 31bf
000001b0: 1c42 57bf 72a2 243f a187 fbbe f2ad 803f
000001c0: 59e4 993f 3a1a a03f 8994 553f 463d 42be
000001d0: 3790 6dbf d2ab 1d3f f71d 223f 6492 f6bd
000001e0: 3e70 be3e 75b1 cfbe 8a3e e6be 5f52 7cbe
000001f0: 19f1 46bd 6903 f33d 34b1 b9be 29e3 223c
00000200: 069f 4b3e 082f 0bbe af81 fcbd b20b d43e
00000210: bca4 95bf 139e aebf 1f47 49bc 0d48 19bf
00000220: 9c27 263f 13dd 273f 9595 373f c931 5d3e
00000230: 89d3 47bd 92b9 7dbf ca31 803e 2416 aebd
00000240: e933 06bf fb0e db3e 24cf 9abd 96dc 76be
00000250: cffd 82be 0763 74be 5eb4 563f f5c8 863f
00000260: b485 9e3f 2814 853f c8eb 223f 6b5b b83e
00000270: bf18 8a3e a866 8c3e 32b4 e43e 1c59 043f
00000280: a9f6 8c3e d184 9fbd 3ba3 aebd 3b8f 2fbd
00000290: 7a7f 38bd 656b 92be cf18 0bbf ca2d bebe
000002a0: 153c 9dbe e3e7 eabe 4127 25bf 1145 69bf
000002b0: 268c 34bf 09d0 36bf 6410 40bf ab69 e5bd
000002c0: 2224 c7bd f4c8 4c3e daa5 2b3e 7ca8 06bd
000002d0: bc09 1cbf ebde 56bf ff91 69bf 14c1 38bf
000002e0: f227 8abe 56ec 44be 5d74 1dbf a127 b1be
000002f0: 980f d1be 5cef 2c3d 3dab 113e 76ae 13be
00000300: 25a9 df3e 2c27 ed3d 38bf 4e3e 66a3 08bd
00000310: 0706 743d ea0b 093f 8017 e33d 1ce5 ac3c
00000320: 8ef7 da3e 78fd 4d3e 7c51 b63e c239 9b3e
00000330: 3260 a23e 7bc7 f8be 198e 1ebf c82b 64bf
00000340: 6d81 28bf 2573 97bd 3bd7 453d e1af a5be
00000350: 85bc a6be 781c a5be 5ed9 0b3d 2f09 be3e
00000360: d96a 6b3e d769 223f 413d c33e 3193 e33e
00000370: 8bd1 be3c ddaa 9c3e 463d 0a3f 1316 723e
00000380: ddf9 af3d 7f5a 1c3c c36e aa3d b231 8f3e
00000390: 970e 933e 5548 b63e bbdb 91be b80c bcbe
000003a0: 4f59 c8bd 3c09 f93d e5d4 233e 21d5 6abe
000003b0: c129 40bf c7f1 fcbe ac1d a4be 1a2e 6dbe
000003c0: ba08 9cbe 7d2b 2dbf ec2a 32bf 73df d2be
000003d0: 2898 e13d 2092 10be 36d0 cebe 872a 07be
000003e0: a713 3a3e 9fe7 d63d 59ee 0cbe f427 14be
000003f0: f265 1fbc 6b8b 18bd 6006 e1bd 1994 93be

conv1.bias f4 [6]
-0.71904415 -0.55170745 -0.5747241 0.27268854 -0.6807256 -0.4178119
00000000: 4713 38bf b33c 0dbf 1e21 13bf d59d 8b3e
00000010: 0844 2ebf 71eb d5be

conv2.weight f4 [16, 6, 5, 5]
0.033094987 -0.12432651 -0.06694578 -0.05514292 -0.04254229 0.26027283 -0.013502638 0.020818902
-0.41644874 -0.09506351 0.17713548 0.22731112 0.1894657 -0.009791358 -0.048762478 -0.24597834
0.39528066 0.38780522 0.5063368 0.5384411 -0.6643782 -0.456599 -0.026308272 -0.17699306
-0.063000396 0.24067861 0.00071464264 0.1788233 -0.079234324 0.044757858 -0.2504977 -0.23856342
0.32462892 0.11489582 0.08730497 -0.26750633 -0.32960498 -0.31933272 -0.46143478 -0.051730946
-0.54870784 -0.41434136 -0.34936607 -0.65824056 -0.015834909 -0.7102342 0.15800756 -0.23224837
-0.16394754 -0.009691014 0.087153256 0.20454481 -0.019632649 -0.27774367 0.080028936 -0.3518371
-0.17695458 0.06989525 0.13152967 0.15618269 -0.1269066 -0.115078256 0.24475938 0.10736909
-0.06432376 -0.08297078 0.013406545 -0.14644442 0.14388607 -0.060303476 -0.18453275 0.21346256
-0.06800334 0.13882743 0.056636166 -0.17267528 -0.08122806 0.29602724 0.59366196 0.31480765
0.22771469 0.030105993 0.16326143 0.29824015 -0.057510488 0.024002299 0.21962456 -0.2370187
0.090474345 -0.14677472 -0.54608023 0.06793608 0.033300124 -0.26527897 -0.63001615 -0.61548775
-0.39881968 -0.288013 -0.33631015 -0.7150681 -0.04567212 -0.0833985 -0.048890308 -0.14146614
0.10654098 0.09478793 -0.37005678 0.26679772 -0.11849584 0.16320811 0.4764175 -0.2810618
0.18955506 0.09974427 0.18353692 1.3726746 0.17164527 0.29614747 0.40671197 0.07926368
0.043641385 0.145218 -0.41375914 -0.43376154 -0.318622 -0.008359303 0.45293576 -0.12226091
-0.07772899 0.13206892 -0.30084363 0.32629976 0.3251037 -0.060323913 0.24342382 -0.32432723
-0.37295458 -0.24201283 -0.2723275 0.045610357 0.26455092 0.4007654 -0.0062680184 -0.29439026
0.16092716 -0.2638073 -0.1175499 0.6307734 0.75258285 0.15514779 -0.26493904 0.7137737
0.38053092 0.1848767 -0.28715444 0.76756936 0.025925592 -0.14683014 -0.15469028 -0.24910706
0.41243175 0.2737976 0.11696085 -0.23056452 -0.0742696 0.084656954 0.0266743 -0.5905777
-0.34852815 -0.4072672 -0.26212037 -0.66220456 -0.29925975 -0.40244102 -0.35914117 0.049215443
0.16307677 0.17383523 0.3682385 0.21003124 -0.12636295 -0.51134074 0.15128025 0.15166274
0.0072493553 -0.39080623 -0.2024158 -0.119390786 0.18882412 0.25347504 -0.09626925 0.045957386
0.12693587 0.36268523 0.11411576 -0.32000178 0.057841685 0.26791963 0.3005423 0.18169945
0.044076238 0.39081252 0.037296996 0.0045883716 -0.20391518 -0.005559172 -0.43396774 -0.31266117
-0.20870294 -0.34071872 -0.11852957 -0.28508192 -0.034288824 -0.04781109 -0.2156303 -0.20070733
0.006336579 -0.030150732 -0.21906528 -0.26726243 -0.2776613 -0.30688864 -0.159757 -0.32916436
-0.7554242 -0.73884195 -0.3866156 -0.08412047 -0.0015660088 0.2900617 -0.32286984 -0.07020451
0.310943 0.039287057 0.07247593 -0.30301252 0.017170757 0.16283117 0.20293683 0.055135064
-0.2464911 0.12280808 0.21842933 0.37277737 -0.11320053 -0.45856386 -0.14390548 -0.12619263
0.035901446 -0.42384622 0.4021507 0.020084765 -0.060109038 -0.20318012 -0.374859 -0.05711551
00000000: 9c8e 073d e69e febd de1a 89bd 8bdd 61bd
00000010: d340 2ebd 7b42 853e 2b3a 5dbc 678c aa3c
00000020: c538 d5be a8b0 c2bd 0163 353e 3fc4 683e
00000030: 4c03 423e ef6b 20bc 2abb 47bd bfe1 7bbe
00000040: 3a62 ca3e 688e c63e 4a9f 013f 47d7 093f
00000050: b114 2abf 58c7 e9be 7284 d7bc ab3d 35be
00000060: 5a06 81bd 7474 763e db56 3b3a 751d 373e
00000070: 9b45 a2bd 0454 373d 3c41 80be f849 74be
00000080: c335 a63e 804e eb3d f3cc b23d 97f6 88be
00000090: fcc1 a8be 947f a3be 2e41 ecbe d4e3 53bd
000000a0: 1e78 0cbf 8d24 d4be 1ce0 b2be 7482 28bf
000000b0: 36b8 81bc e9d1 35bf bccc 213e 84d2 6dbe
000000c0: dde1 27be 0fc7 1ebc 687d b23d 3274 513e
000000d0: a6d4 a0bc 6b34 8ebe 36e6 a33d fe23 b4be
000000e0: 9533 35be 3e25 8f3d b7af 063e 5bee 1f3e
000000f0: cef3 01be 26ae ebbd 34a2 7a3e 53e4 db3d
00000100: 2dbc 83bd 96ec a9bd 20a7 5b3c 87f5 15be
00000110: df56 133e c700 77bd 27f6 3cbe ee95 5a3e
00000120: 5645 8bbd c728 0e3e 53fb 673d cad1 30be
00000130: e65a a6bd e290 973e 3bfa 173f 782e a13e
00000140: 0a2e 693e d8a0 f63c 012e 273e efb2 983e
00000150: 1e90 6bbd 78a0 c43c 43e5 603e 08b5 72be
00000160: 9d4a b93d 1d4c 16be eacb 0bbf 1222 8b3d
00000170: b665 083d a5d2 87be bd48 21bf 9b90 1dbf
00000180: 1832 ccbe 7176 93be d830 acbe b40e 37bf
00000190: b012 3bbd d5cc aabd 3441 48bd 80dc 10be
000001a0: 2832 da3d 2d20 c23d 1578 bdbe b699 883e
000001b0: f2ad f2bd 0720 273e ffec f33e 55e7 8fbe
000001c0: b91a 423e b946 cc3d 1af1 3b3e cdb3 af3f
000001d0: c7c3 2f3e a4a0 973e 8d3c d03e ff54 a23d
000001e0: 4fc1 323d 07b4 143e 3dd8 d3be fe15 debe
000001f0: 6c22 a3be 75f5 08bc 32e7 e73e ee63 fabd
00000200: 6030 9fbd 133d 073e 2d08 9abe c310 a73e
00000210: fe73 a63e 3516 77bd 1844 793e 380e a6be
00000220: e7f3 bebe 36d2 77be 836e 8bbe edd1 3a3d
00000230: 3873 873e 1f31 cd3e f363 cdbb 52ba 96be
00000240: 17ca 243e c011 87be 01be f0bd 5e7a 213f
00000250: 45a9 403f 10df 1e3e 17a6 87be e0b9 363f
00000260: f3d4 c23e 5150 3d3e e805 93be 6d7f 443f
00000270: e861 d43c a45a 16be 2167 1ebe ec15 7fbe
00000280: 412a d33e 332f 8c3e 2c89 ef3d 1b19 6cbe
00000290: a91a 98bd a060 ad3d 1084 da3c 1a30 17bf
000002a0: 4872 b2be 5485 d0be a434 86be 3d86 29bf
000002b0: 9338 99be c00c cebe 5ae1 b7be 2296 493d
000002c0: 99fd 263e dd01 323e c289 bc3e 6e12 573e
000002d0: 4a65 01be 3ae7 02bf 36e9 1a3e 7a4d 1b3e
000002e0: 008c ed3b c117 c8be 1646 4fbe 2883 f4bd
000002f0: 1c5b 413e 7bc7 813e d028 c5bd d03d 3c3d
00000300: 7afb 013e e1b1 b93e 86b5 e93d 46d7 a3be
00000310: 67eb 6c3d c32c 893e aee0 993e 6c0f 3a3e
00000320: 4989 343d 9418 c83e bcc4 183d 0d5a 963b
00000330: 24cf 50be b729 b6bb 0531 debe 2015 a0be
00000340: 39b6 55be af72 aebe a2bf f2bd 42f6 91be
00000350: 7072 0cbd 90d5 43bd 30ce 5cbe 3986 4dbe
00000360: 14a3 cf3b abfe f6bc a652 60be 9fd6 88be
00000370: 9f29 8ebe 8220 9dbe 5797 23be 3b88 a8be
00000380: 7b63 41bf bf24 3dbf 7bf2 c5be 5a47 acbd
00000390: 8942 cdba f882 943e 324f a5be 62c7 8fbd
000003a0: ec33 9f3e 77eb 203d 436e 943d 7524 9bbe
000003b0: b0a9 8c3c 37bd 263e acce 4f3e 4ed5 613d
000003c0: 2a68 7cbe cd82 fb3d f0ab 5f3e addc be3e
000003d0: aed5 e7bd e2c8 eabe f55b 13be a438 01be
000003e0: 650d 133d 5f02 d9be b2e6 cd3e ce88 a43c
000003f0: e534 76bd 730e 50be 85ed bfbe f4f1 69bd

conv2.bias f4 [16]
-2.5427544 0.6213041 0.40134352 0.6067116 1.1379379 -0.4364075 -2.223182 -1.1286212
0.6013381 0.06036401 0.32640985 2.3645694 -0.94468796 0.5747082 2.341691 0.8511749
00000000: 7dbc 22c0 c90d 1f3f e67c cd3e 7451 1b3f
00000010: f3a7 913f ce70 dfbe 9d48 0ec0 a976 90bf
00000020: 4bf1 193f 4140 773d 311f a73e 1b55 1740
00000030: 12d7 71bf 1420 133f 44de 1540 99e6 593f

fc1.weight f4 [120, 400]
0.031224947 -0.07139616 -0.11318619 0.03307569 0.016065897 0.07734054 0.010425377 0.14470002
0.046869673 0.052388594 -0.014631109 0.13919583 0.0830864 0.15567811 0.0106366025 0.20307356
-0.106756054 -0.13966995 -0.19700806 -0.3109721 0.17723832 0.25794712 0.03167487 -0.3609008
-0.19070634 0.07702084 -0.21494555 -0.07108678 0.11478824 -0.2956328 -0.16454366 -0.1128099
0.14520141 0.01906801 -0.10801267 -0.102326974 -0.08882224 0.024269631 0.12974103 -0.009963933
-0.13758259 -0.24616721 0.22602421 0.30313534 0.019571178 0.031018676 -0.046923824 -0.125473
0.1855374 0.23578157 0.040560145 0.025693743 -0.24675894 0.13216564 -0.17365408 0.12311432
0.17620029 -0.10327451 0.12837209 -0.2825516 0.013899492 -0.058636714 0.20428696 -0.01883484
-0.11479907 0.10786484 -0.10689941 0.1102591 0.0049051363 0.06647027 0.26282138 -0.06015344
-0.10507734 -0.15899222 0.06299173 -0.23441245 -0.17241162 -0.0070713414 -0.23901083 -0.11988725
0.09308393 0.23357596 0.2413887 0.08591037 -0.1470856 0.03921421 0.17715466 0.02398724
-0.15122844 0.023284612 -0.023298971 -0.08334816 -0.041554138 -0.07650824 -0.026322018 -0.1706472
-0.07025201 -0.101053536 -0.14269452 0.035527986 0.1423051 -0.067458995 -0.1228712 0.016293138
-0.31800407 -0.0016113544 -0.17652127 -0.30294624 0.080188915 0.22882824 0.20302512 0.07937947
-0.29944447 -0.23887779 0.057157695 -0.15397888 -0.011741086 -0.11956265 -0.11356699 0.063987836
-0.32434252 -0.1204288 -0.043243196 0.029484792 0.032444578 -0.0067918412 -0.010355944 -0.3023889
-0.17706881 -0.17649198 -0.025470946 0.25350082 0.069987796 -0.044772908 -0.23022178 0.058880996
0.12771802 -0.0094604315 0.026661232 -0.17944251 -0.020755071 0.07478244 0.13216017 -0.16622923
0.22421283 0.1991804 -0.12762699 0.1874338 0.1980576 0.10532879 -0.04455041 -0.057766173
-0.17620882 -0.28864226 -0.65419495 -0.0640246 -0.13786934 -0.06931775 0.23573858 -0.11050964
0.0804927 0.28563073 0.11037545 0.051235747 0.08897641 -0.06485476 -0.14146549 -0.043556564
0.117627494 -0.08541372 -0.31489632 -0.21885262 -0.2745199 -0.31554127 -0.13198619 -0.50294065
0.0801237 -0.15142223 -0.19388458 -0.09260334 -0.30842143 -0.15831213 -0.0919355 0.08389767
0.1873044 -0.0315797 0.20933409 0.15021071 -0.08517928 0.30693743 -0.0028245335 -0.05584499
-0.12921754 0.033382237 0.10133832 0.14979029 0.12973462 0.19937772 0.0070458236 0.014392244
0.08672121 -0.0132203 -0.017072722 -0.13218531 0.036111873 -0.043616116 -0.09016781 0.0119009195
-0.03557451 0.036170457 -0.17610785 -0.009025481 0.06506659 -0.042842794 -0.24945012 0.05348945
0.06541715 0.027332252 -0.0002321158 -0.08215474 0.069185875 0.005185884 -0.2319358 -0.13120182
-0.1444005 -0.17475629 -0.03540069 0.046902075 -0.12770541 -0.0493643 0.06266733 -0.021115396
0.14010882 0.09619598 0.10874504 0.098561704 0.024863176 0.18058921 0.03129545 -0.04603448
-0.017791279 -0.14233352 0.01018739 -0.031038836 -0.063784845 -0.086336225 -0.18578243 -0.27155107
-0.081340134 -0.14860682 0.090066746 -0.09607741 -0.23623829 -0.19231983 -0.006293197 -0.06566341
00000000: 76cb ff3c 2638 92bd 29ce e7bd 607a 073d
00000010: a19c 833c b864 9e3d 33cf 2a3c 3e2c 143e
00000020: 6afa 3f3d 6c95 563d 52b7 6fbc 5a89 0e3e
00000030: 3429 aa3d 156a 1f3e 2545 2e3c 84f2 4f3e
00000040: eba2 dabd a405 0fbe 7bbc 49be bc37 9fbe
00000050: f67d 353e a511 843e 82bd 013d fdc7 b8be
00000060: 8648 43be 1abd 9d3d b01a 5cbe f295 91bd
00000070: 1916 eb3d 2f5d 97be 227e 28be e008 e7bd
00000080: aeaf 143e 8434 9c3c bf35 ddbd ce90 d1bd
00000090: 6fe8 b5bd 1bd1 c63c d5da 043e c43f 23bc
000000a0: 73e2 0cbe 4213 7cbe e472 673e 8e34 9b3e
000000b0: bc53 a03c e11a fe3c 3233 40bd fe7b 00be
000000c0: 84fd 3d3e b970 713e 6522 263d af7b d23c
000000d0: 60ae 7cbe 6e56 073e 60d2 31be 5c23 fc3d
000000e0: d96d 343e 9681 d3bd f973 033e 9aaa 90be
000000f0: b2ba 633c 0d2d 70bd 9a30 513e 864b 9abc
00000100: c61b ebbd 3ee8 dc3d 14ee dabd 86cf e13d
00000110: 44bb a03b 9121 883d 8690 863e 7463 76bd
00000120: ca32 d7bd dbce 22be cf01 813d d109 70be
00000130: ac8c 30be b6b6 e7bb 41bf 74be 7287 f5bd
00000140: caa2 be3d 892e 6f3e 992e 773e c7f1 af3d
00000150: 9c9d 16be 149f 203d 0868 353e e380 c43c
00000160: a1db 1abe 5fbf be3c 7cdd bebc 71b2 aabd
00000170: ac34 2abd 5ab0 9cbd 46a1 d7bc 24be 2ebe
00000180: 49e0 8fbd 28f5 cebd 831e 12be cb85 113d
00000190: 6eb8 113e f127 8abd e5a3 fbbd 3079 853c
000001a0: 6ed1 a2be 1534 d3ba fec1 34be c51b 9bbe
000001b0: 163a a43d f351 6a3e d1e5 4f3e b491 a23d
000001c0: c950 99be 619c 74be 301e 6a3d a4ac 1dbe
000001d0: af5d 40bc 43dd f4bd cf95 e8bd 0e0c 833d
000001e0: 3910 a6be 60a3 f6bd c71f 31bd 178a f13c
000001f0: 9be4 043d 188e debb faab 29bc b8d2 9abe
00000200: 8751 35be 50ba 34be 72a8 d0bc dcca 813e
00000210: c355 8f3d cc63 37bd 42bf 6bbe 332d 713d
00000220: 83c8 023e edff 1abc a868 da3c c7bf 37be
00000230: 8a06 aabc 8927 993d ff54 073e ff37 2abe
00000240: 0c98 653e f2f5 4b3e a6b0 02be a5ee 3f3e
00000250: 9dcf 4a3e 9fb6 d73d 7e7a 36bd 399c 6cbd
00000260: 1670 34be ebc8 93be 5279 27bf 541f 83bd
00000270: 9f2d 0dbe 77f6 8dbd 7465 713e e152 e2bd
00000280: 5bd9 a43d 313e 923e 860c e23d 93dc 513d
00000290: 4439 b63d 93d2 84bd 54dc 10be 5e68 32bd
000002a0: afe6 f03d 63ed aebd 173a a1be e71a 60be
000002b0: df8d 8cbe a08e a1be 6327 07be b8c0 00bf
000002c0: e517 a43d 6e0e 1bbe ae89 46be d2a6 bdbd
000002d0: 6ae9 9dbe 931c 22be ae48 bcbd 8bd2 ab3d
000002e0: bacc 3f3e b759 01bd ad5b 563e d6d0 193e
000002f0: 7972 aebd e726 9d3e cf1b 39bb b7bd 64bd
00000300: 9a51 04be d0bb 083d 778a cf3d a062 193e
00000310: 27d9 043e ac29 4c3e a7e0 e63b 72cd 6b3c
00000320: e49a b13d f599 58bc 18dc 8bbc 965b 07be
00000330: 0bea 133d d0a6 32bd e7a9 b8bd 13fc 423c
00000340: 94b6 11bd 7927 143d 9e55 34be 9cdf 13bc
00000350: a241 853d ed7b 2fbd da6f 7fbe c117 5b3d
00000360: 6df9 853d e3e7 df3c 1c64 73b9 bf40 a8bd
00000370: 53b1 8d3d 59ee a93b 9480 6dbe c559 06be
00000380: badd 13be 50f3 32be 5000 11bd 641c 403d
00000390: 35c5 02be 3832 4abd bb57 803d 32fa acbc
000003a0: b078 0f3e 6602 c53d b8b5 de3d b8da c93d
000003b0: dcad cb3c 61ec 383e a82f 003d a78e 3cbd
000003c0: 04bf 91bc e1bf 11be 03e9 263c 2845 febc
000003d0: a1a1 82bd 0cd1 b0bd c03d 3ebe be08 8bbe
000003e0: a895 a6bd 632c 18be ea74 b83d 3cc4 c4bd
000003f0: 73e8 71be 7def 44be 2a37 cebb 8a7a 86bd

fc1.bias f4 [120]
0.31776083 -0.44121924 0.30447707 0.08478546 0.35181147 0.14498122 -0.060507 -0.0036677439
0.14562102 -0.0724401 -0.34101543 0.453547 -0.08537251 -0.1739475 0.26232782 0.046929065
-0.14627507 0.3278486 -0.1192371 -0.027180683 0.18160076 0.06468283 0.0027783078 -0.052878615
-0.15855588 -0.15197578 -0.002522311 0.14646022 -0.15867266 -0.60039157 0.015904866 -0.21920332
0.10099975 -0.05125671 -0.5286599 0.073820226 0.09159405 0.12078627 0.08686548 0.11608248
-0.37332073 0.22128752 -0.16274671 0.04671805 -0.1377578 0.10212308 0.35497022 0.28428042
-0.13304679 0.1074899 -0.012774978 -0.03310311 0.06901228 0.1250195 -0.10505484 0.08251551
0.260614 0.06992863 0.15569665 -0.15541366 -0.1992582 -0.24466571 0.021613717 -0.045797292
0.05036366 0.578547 0.12178306 -0.07443397 0.21260774 0.095551066 -0.13107944 -0.20123748
-0.10765412 0.04110267 0.17942567 -0.07390498 0.15485594 0.07407855 0.4117694 0.40928814
-0.055173684 -0.075704284 0.062384225 -0.1642316 0.19740473 -0.31430748 -0.2015164 0.4499129
0.01984708 0.46368912 0.16953997 -0.036820546 -0.12124128 0.100467116 0.25650188 0.022642495
0.30403137 -0.022647569 -0.30464938 0.11448878 -0.0911474 0.69701505 0.0855601 -0.112831146
0.1452732 -0.07437943 0.17349488 -0.304286 0.057502262 0.13432807 -0.20266071 0.034436263
-0.12765147 0.16968194 -0.07120544 -0.012405442 0.07002297 -0.23992234 0.16470328 -0.15009502
00000000: 8cb1 a23e 7de7 e1be 6be4 9b3e 00a4 ad3d
00000010: a220 b43e f575 143e 30d6 77bd 885e 70bb
00000020: ad1d 153e 7a5b 94bd 9399 aebe 5037 e83e
00000030: c8d7 aebd 4b1f 32be d54f 863e b138 403d
00000040: 22c9 15be c6db a73e 9532 f4bd 06aa debc
00000050: 8df5 393e 6e78 843d 4514 363b 3f97 58bd
00000060: 795c 22be 8a9f 1bbe 5b4d 25bb abf9 153e
00000070: 167b 22be 43b3 19bf ec4a 823c d676 60be
00000080: f5d8 ce3d 8ef2 51bd 4156 07bf 0f2f 973d
00000090: a995 bb3d cb5e f73d 87e6 b13d a7bc ed3d
000000a0: e523 bfbe 3299 623e 13a7 26be 6d5b 3f3d
000000b0: 6110 0dbe e825 d13d a8be b53e 348d 913e
000000c0: 6b3d 08be aa23 dc3d 244e 51bc 2097 07bd
000000d0: 4f56 8d3d 1d05 003e fe26 d7bd e4fd a83d
000000e0: 336f 853e be36 8f3d f16e 1f3e c224 1fbe
000000f0: 570a 4cbe a689 7abe 400f b13c f195 3bbd
00000100: 204a 4e3d a81b 143f 6669 f93d d670 98bd
00000110: d8b5 593e 47b0 c33d b039 06be 3311 4ebe
00000120: c379 dcbd 465b 283d 5dbb 373e 7f5b 97bd
00000130: 8e92 1e3e 7fb6 973d 70d3 d23e 378e d13e
00000140: cdfd 61bd d90a 9bbd 9a86 7f3d 542c 28be
00000150: 7724 4a3e e9ec a0be 515a 4ebe fc5a e63e
00000160: 5896 a23c a968 ed3e e39b 2d3e 24d1 16bd
00000170: 594d f8bd b4c1 cd3d 3754 833e c17c b93c
00000180: 00aa 9b3e 6587 b9bc 01fb 9bbe 1879 ea3d
00000190: 7dab babd 946f 323f 223a af3d 0414 e7bd
000001a0: 7fc2 143e 3e54 98bd a4a8 313e 60cb 9bbe
000001b0: 7e87 6b3d 4c8d 093e 4a86 4fbe 0a0d 0d3d
000001c0: 11b7 02be 1ac1 2d3e 28d4 91bd 3240 4bbc
000001d0: 3468 8f3d 34ae 75be faa7 283e 82b2 19be

fc2.weight f4 [84, 120]
0.25368595 -0.3381728 0.17325383 -0.08180181 -0.15554552 -0.2917449 -0.30390885 -0.077510186
-0.18960188 -0.09276633 -0.16067693 -0.10152266 0.09199899 0.045560956 -0.03432489 -0.08699892
0.014032862 -0.37992814 -0.026553027 0.20267238 0.16317376 -0.081571 -0.07091723 0.0132253915
0.14955954 -0.019452449 -0.1311976 -0.024263008 -0.07506772 0.051134255 -0.10276753 0.22768928
0.07179689 -0.10953732 -0.17203316 -0.21909595 0.23756519 -0.0940147 -0.1708167 0.07024117
-0.19552587 0.04275465 -0.10763424 -0.30428627 -0.19136766 -0.21564266 -0.112215735 -0.057507962
-0.14702521 0.03863109 -0.24767186 0.13971007 -0.2304626 -0.1316329 0.15187874 -0.20348279
-0.07337741 -0.1061271 -0.14491017 -0.19879147 0.19773805 -0.06670648 0.28592923 -0.023922501
-0.21115023 0.33721 0.14800371 -0.097789384 0.13975234 -0.19730699 -0.17275533 -0.23756732
0.004938624 0.20640843 0.051622666 -0.18342611 0.10108641 -0.2671124 0.36257073 -0.04375695
0.045598265 0.015425918 -0.15355095 -0.030012995 0.114509776 0.11546261 -0.12868781 -0.2784696
-0.29870063 -0.26774096 0.112656645 -0.1306844 -0.14363694 -0.09383736 -0.10540163 -0.02038626
0.10713642 -0.11489204 -0.0016955709 -0.030329963 0.051394895 0.09293319 0.23471808 -0.047962975
-0.035940785 0.1430955 0.19889334 0.07034323 0.082748905 -0.08894955 -0.22492549 -0.06522397
-0.32006988 0.11469281 -0.07972943 -0.26729044 0.13606928 -0.13811247 -0.17694981 0.1920342
0.13939354 -0.04147208 -0.077156566 -0.20618333 -0.28991973 -0.030941108 0.2662123 0.07583272
0.1496614 0.08735798 -0.2657794 -0.19346625 -0.41523245 -0.030183908 -0.104955986 -0.008874004
-0.06049956 -0.041207712 0.024266487 -0.14491169 0.10677553 0.04294136 -0.18676156 -0.2327522
-0.046252258 -0.13435243 0.031818856 -0.11856397 0.17956527 -0.10502995 -0.096172236 0.12546936
0.040085316 0.12181682 0.14343435 -0.0998013 -0.14431034 0.012796411 -0.13483815 -0.061115272
0.10330419 -0.12961541 0.22219674 -0.13534935 0.18553755 -0.19617315 -0.17106031 -0.20531774
-0.028991047 -0.027542727 -0.2248402 -0.105054945 0.03880768 -0.13922307 0.08584166 0.1781039
0.06648217 0.07950704 -0.13965775 0.045707095 -0.033327032 0.050075896 -0.23888901 0.032283965
0.064693734 -0.2998679 -0.15805027 -0.017243756 0.05289486 -0.25829697 -0.1067113 -0.029455628
0.08423903 -0.08551161 -0.108062744 0.25690565 0.042480607 -0.0029931436 -0.08703986 -0.17060193
-0.0010292657 0.050064836 0.016809022 0.1112664 0.006261996 0.12904418 0.23703432 -0.044728458
0.11648502 -0.05765389 0.14478333 -0.104778 -0.23362105 -0.22666758 0.08331678 -0.056208663
-0.17950834 0.05432659 0.035807375 -0.059271485 0.1161056 -0.2323725 0.028571524 -0.29947945
0.00826192 -0.1499005 0.0058419122 -0.10965443 -0.122812815 0.12839015 0.12852363 -0.038948875
0.055301882 0.1440275 -0.18412036 -0.229599 0.0047951606 -0.09729084 0.011505064 -0.019284705
-0.3422364 -0.25014243 0.033638123 0.025742535 0.11524581 -0.34741 0.0006900404 0.017735604
-0.061849516 0.1963397 0.2765362 0.010200155 0.03538178 -0.12345226 -0.2730206 -0.13361081
00000000: 20e3 813e fc24 adbe 7469 313e b587 a7bd
00000010: 5347 1fbe 965f 95be f199 9bbe a9bd 9ebd
00000020: ff26 42be 46fc bdbd 7e88 24be 1deb cfbd
00000030: f769 bc3d 209e 3a3d 4198 0cbd 7d2c b2bd
00000040: 17ea 653c f185 c2be bc85 d9bc 5989 4f3e
00000050: 0617 273e b20e a7bd 0d3d 91bd 50af 583c
00000060: 2326 193e be5a 9fbc aa58 06be 37c3 c6bc
00000070: 1bbd 99bd 2772 513d c877 d2bd 6127 693e
00000080: 3f0a 933d 1a55 e0bd 7629 30be b05a 60be
00000090: 4a44 733e c78a c0bd 93ea 2ebe 9ada 8f3d
000000a0: ef37 48be 801f 2f3d 576f dcbd 69cb 9bbe
000000b0: e2f5 43be 6ed1 5cbe 5dd1 e5bd 788d 6bbd
000000c0: c78d 16be a23b 1e3d b19d 7dbe 2810 0f3e
000000d0: 63fe 6bbe c6ca 06be 1a86 1b3e cb5d 50be
000000e0: e546 96bd 2a59 d9bd 5563 14be fe8f 4bbe
000000f0: d87b 4a3e 689d 88bd 5165 923e 1ff9 c3bc
00000100: c437 58be caa6 ac3e 498e 173e cd45 c8bd
00000110: 3d1b 0f3e d80a 4abe c6e6 30be d944 73be
00000120: 2ed4 a13b bb5c 533e 4a72 533d 0ed4 3bbe
00000130: 6406 cf3d f5c2 88be dfa2 b93e 7d3a 33bd
00000140: 3fc5 3a3d fdbc 7c3c 763c 1dbe d0dd f5bc
00000150: 1a84 ea3d a977 ec3d bdc6 03be 9193 8ebe
00000160: 4aef 98be 5815 89be 87b8 e63d 22d2 05be
00000170: 9015 13be cd2d c0bd cfdc d7bd 1601 a7bc
00000180: 576a db3d 854c ebbd eb3d deba 8b76 f8bc
00000190: 7483 523d c253 be3d f059 703e d374 44bd
000001a0: a536 13bd a087 123e b2aa 4b3e 1d10 903d
000001b0: 4278 a93d 2f2b b6bd de52 66be 2594 85bd
000001c0: 33e0 a3be 10e4 ea3d 2f49 a3bd 4bda 88be
000001d0: bf55 0b3e 5b6d 0dbe 5532 35be 9da4 443e
000001e0: 2ebd 0e3e a1de 29bd 4304 9ebd b921 53be
000001f0: 5c70 94be 3578 fdbc fb4c 883e 2f4e 9b3d
00000200: d740 193e bee8 b23d 3d14 88be 041c 46be
00000210: 5999 d4be 3e44 f7bc 2af3 d6bd 4564 11bc
00000220: 63ce 77bd 6bc9 28bd 83ca c63c bb63 14be
00000230: 21ad da3d 48e3 2f3d 6c3e 3fbe 9856 6ebe
00000240: 0273 3dbd af93 09be 7d54 023d abd1 f2bd
00000250: f5df 373e f119 d7bd f3f5 c4bd 0a7b 003e
00000260: 8030 243d 197b f93d 74e0 123e a064 ccbd
00000270: 17c6 13be 0aa8 513c 0313 0abe 0254 7abd
00000280: 2691 d33d e7b9 04be 8b87 633e 0599 0abe
00000290: 8efd 3d3e 9de1 48be 6f2a 2fbe d03e 52be
000002a0: a27e edbc 49a1 e1bc 823c 66be 0c27 d7bd
000002b0: cdf4 1e3d 7e90 0ebe c1cd af3d de60 363e
000002c0: ce27 883d 96d4 a23d 7102 0fbe 5d37 3b3d
000002d0: ed81 08bd 621c 4d3d 529f 74be 313c 043d
000002e0: 267e 843d 4988 99be eed7 21be c742 8dbc
000002f0: 48a8 583d 803f 84be 748b dabd ee4c f1bc
00000300: 8385 ac3d b620 afbd 0050 ddbd 2389 833e
00000310: 2500 2e3d 9e28 44bb f441 b2bd 46b2 2ebe
00000320: 6de8 86ba c910 4d3d 13b3 893c a3df e33d
00000330: 6e31 cd3b 2824 043e 20b9 723e 3035 37bd
00000340: b38f ee3d 7c26 6cbd 1542 143e d995 d6bd
00000350: 5b3a 6fbe 8c1b 68be fda1 aa3d 0e3b 66bd
00000360: 09d1 37be 8f85 5e3d c1aa 123d a8c6 72bd
00000370: c6c8 ed3d 0ef3 6dbe d40e ea3c 5f55 99be
00000380: 015d 073c 847f 19be 836d bf3b 8092 e0bd
00000390: 4985 fbbd b578 033e b39b 033e db88 1fbd
000003a0: 3a84 623d f27b 133e 0c8a 3cbe 001c 6bbe
000003b0: b920 9d3b 6c40 c7bd bc7f 3c3c f5fa 9dbc
000003c0: 9c39 afbe ab12 80be 21c8 093d 02e2 d23c
000003d0: ff05 ec3d b9df b1be d4e3 343a 424a 913c
000003e0: eb55 7dbd 460d 493e 2796 8d3e 8d1e 273c
000003f0: 7cec 103d 8ad4 fcbd 5bc9 8bbe 46d1 08be

fc2.bias f4 [84]
0.21295625 0.002013667 -0.060529772 0.15496673 0.045195296 0.16876262 0.96354014 0.11128064
-0.5084007 -0.06694509 -0.25843817 0.42088154 0.10962139 0.19396457 0.12476814 0.85741556
0.16635981 0.7597917 0.7593465 -0.1178736 0.17206496 0.13278636 0.042767424 0.84551316
-0.15683363 -0.08065632 0.35533294 0.5774145 0.25092292 0.15130746 0.47807956 0.21734181
0.13634819 0.763008 0.20429826 -0.13899404 1.0337383 -0.043159313 0.17547153 1.1014545
0.28516284 -0.13106315 -0.036318824 0.1066631 0.12265728 -0.016904105 0.3764907 -0.12530428
0.1319221 -0.09485698 0.39230624 -0.15336193 -0.3331331 0.085841335 0.27835852 -0.21285124
-0.1921524 0.46538153 0.41808987 0.10624899 -0.084233016 -0.012150036 0.4396959 0.33148512
0.6773548 0.2119247 -0.043170642 0.14353384 0.6560005 0.016225472 -0.13145305 0.20710263
0.32556912 0.541505 -0.44502282 -0.3176439 0.43127444 -0.014371626 -0.04293648 -0.16505168
0.6015177 0.1558863 0.45240852 -0.24625409
00000000: 3411 5a3e baf7 033b 11ee 77bd 99af 1e3e
00000010: b41e 393d 1cd0 2c3e 91aa 763f 1be7 e33d
00000020: 8c26 02bf 821a 89bd 0252 84be c97d d73e
00000030: 2e81 e03d a69e 463e 7086 ff3d 967f 5b3f
00000040: 3a5a 2a3e b581 423f 8864 423f b767 f1bd
00000050: cc31 303e 26f9 073e e52c 2f3d 8d73 583f
00000060: ff98 20be 242f a5bd 33ee b53e 70d1 133f
00000070: f878 803e 58f0 1a3e d8c6 f43e da8e 5e3e
00000080: dc9e 0b3e 7e54 433f 9033 513e 7454 0ebe
00000090: 8951 843f d2c7 30bd cfae 333e 76fc 8c3f
000000a0: dd00 923e 6b35 06be 0cc3 14bd 2f72 da3d
000000b0: bd33 fb3d 7a7a 8abc 64c3 c03e c44f 00be
000000c0: 9616 073e 6044 c2bd 5ddc c83e e90a 1dbe
000000d0: 6c90 aabe 95cd af3d 0285 8e3e adf5 59be
000000e0: 99c3 44be 7d46 ee3e e00f d63e 1299 d93d
000000f0: 5c82 acbd f210 47bc d21f e13e 6bb8 a93e
00000100: 2067 2d3f ca02 593e b3d3 30bd 89fa 123e
00000110: a6ef 273f 48eb 843c a19b 06be b612 543e
00000120: ffb0 a63e 12a0 0a3f 08da e3be 39a2 a2be
00000130: 01d0 dc3e f876 6bbc 2ade 2fbd 4f03 29be
00000140: 10fd 193f a9a0 1f3e 17a2 e73e 082a 7cbe

fc3.weight f4 [10, 84]
-0.13054036 -0.04230486 0.2528018 -0.111516625 0.14404398 0.13314958 -0.26513925 -0.017542439
0.025511524 0.20644598 0.06134059 -0.19129473 -0.11096785 0.12041329 0.22250544 -0.17871803
-0.09617134 -0.33784017 -0.12401721 0.04972645 -0.109508045 -0.10200635 0.13618255 -0.34551144
0.084218666 0.18327999 0.16948481 0.2299582 -0.14038974 0.111490816 -0.29838997 0.08677569
0.086645305 0.12660003 0.17908074 0.16664732 -0.31465986 -0.08344556 0.031316232 0.08015052
0.160466 0.21442494 0.09464194 -0.038115155 -0.16348685 -0.011401366 -0.036235217 -0.045041453
0.03134523 0.2133344 -0.012284236 0.022393508 0.19368143 -0.047636658 -0.008853803 -0.0038398898
-0.051695473 -0.09769148 0.1796601 0.055788934 -0.040492248 0.28659803 0.1345198 0.12296022
0.16726847 -0.13792112 0.10294259 -0.13741016 0.03759944 0.32181922 -0.01797171 -0.22748958
-0.08164034 -0.20843393 0.19887692 0.08620952 -0.16460314 0.011611843 -0.00028707125 -0.009413585
0.0041805212 -0.036617134 0.22324471 0.21427754 -0.016986577 0.22525637 -0.19280091 -0.11639171
-0.09580135 -0.1517152 -0.19545971 0.21557984 0.20440528 -0.14586401 -0.13913478 -0.48900282
0.02938801 -0.09557079 -0.20005174 -0.12735261 0.29943305 -0.16351178 -0.23602507 0.2526508
0.14388698 0.033164795 -0.06630158 -0.19449455 0.11836998 0.14965151 -0.06976249 0.0026176942
0.11782394 0.15397917 0.14130746 0.25544143 0.25522462 -0.19729874 -0.08597954 -0.18018126
-0.17160909 0.0011462588 0.12923652 -0.4573667 -0.2960545 0.20409517 0.055824466 -0.023878532
0.20138682 -0.049746774 0.030498913 0.23405612 -0.08612813 -0.100525625 -0.12410402 0.0685061
0.042049304 0.07471285 -0.30990645 0.013044484 0.13357393 -0.041188832 -0.028568137 0.07885501
0.19933607 0.15314505 0.12994856 -0.18890563 -0.11264697 0.139588 0.16895506 0.18172653
-0.032054994 0.35469034 0.06405824 -0.02875263 0.027038518 -0.041774273 0.054266315 -0.066111244
-0.03863648 0.26886246 -0.035777975 0.23437718 -0.15951158 0.13426393 0.20658463 0.077257074
0.059573278 -0.10826458 0.0012825036 -0.16049834 0.25015157 -0.06555271 0.018138995 -0.23843579
0.18454538 -0.060748976 0.27068856 0.23258369 0.14529386 0.0037663865 0.030788809 -0.03918772
0.038086537 -0.08485108 -0.028532952 -0.16938221 -0.018163817 0.15004854 0.20449325 0.21851324
0.05625161 -0.008509006 0.057877194 0.05433846 -0.32920125 0.10504336 -0.008344649 -0.17263593
-0.3670523 0.08641169 0.17117162 -0.033311266 0.17787333 0.10519477 0.010795382 0.25278485
-0.11103575 -0.01608205 -0.12849641 -0.049074814 -0.22142886 0.20719932 0.040200282 0.0942782
-0.20630658 0.2808566 0.14564764 -0.05129723 0.13634355 0.026531613 0.2102262 0.22129795
0.19711062 0.23876178 0.13857405 0.045854058 0.018126922 0.0866419 -0.15255152 0.09602069
0.15418787 -0.024346689 -0.106994376 0.003349499 0.0952331 0.027127294 0.2527643 0.14226286
-0.08746383 -0.027245726 0.10609224 0.14661442 -0.12798844 0.028458161 -0.08019458 0.056593776
-0.06394045 -0.08142867 -0.26529005 0.09533149 0.12163088 0.04414922 0.10179287 -0.011555086
00000000: 5fac 05be dc47 2dbd 3d6f 813e d462 e4bd
00000010: 4480 133e 5d58 083e 55c0 87be 29b5 8fbc
00000020: 8bfd d03c 9366 533e 4540 7b3d c4e2 43be
00000030: 1d43 e3bd 3e9b f63d 77d8 633e dc01 37be
00000040: 7bf5 c4bd 63f9 acbe bcfc fdbd f6ad 4b3d
00000050: c145 e0bd b5e8 d0bd 7073 0b3e e0e6 b0be
00000060: d67a ac3d c0ad 3b3e 6d8d 2d3e 2a7a 6b3e
00000070: 54c2 0fbe 4c55 e43d 92c6 98be 74b7 b13d
00000080: 1873 b13d 70a3 013e f160 373e 98a5 2a3e
00000090: 191b a1be 81e5 aabd 7345 003d f525 a43d
000000a0: 3351 243e 3692 5b3e a2d3 c13d a31e 1cbd
000000b0: 1969 27be cccc 3abc 616b 14bd 637d 38bd
000000c0: db63 003d 5574 5a3e d243 49bc 9772 b73c
000000d0: 6d54 463e a81e 43bd 8b0f 11bc a9a6 7bbb
000000e0: a2be 53bd 7812 c8bd d1f8 373e f082 643d
000000f0: 33db 25bd fabc 923e 8fbf 093e 91d2 fb3d
00000100: 6d48 2b3e 323b 0dbe 91d3 d23d 40b5 0cbe
00000110: df01 1a3d 7dc5 a43e 6839 93bc 07f3 68be
00000120: 0d33 a7bd b46f 55be 64a6 4b3e 9e8e b03d
00000130: ba8d 28be 993f 3e3c 0d82 96b9 703b 1abc
00000140: c1fc 883b d9fb 15bd 439a 643e 926b 5b3e
00000150: 6f27 8bbc 9ba9 663e 9a6d 45be c75e eebd
00000160: 8033 c4bd 3b5b 1bbe 9726 48be f6c0 5c3e
00000170: 9e4f 513e 605d 15be 5979 0ebe 945e fabe
00000180: 20bf f03c 9eba c3bd 5dda 4cbe b968 02be
00000190: 4a4f 993e a26f 27be 8eb0 71be 725b 813e
000001a0: 1c57 133e cfd7 073d 1fc9 87bd 9429 47be
000001b0: f66b f23d 3f3e 193e a3df 8ebd 9f8d 2b3b
000001c0: ae4d f13d b7ac 1d3e e7b2 103e 38c9 823e
000001d0: cdac 823e ae08 4abe 0b16 b0bd 7081 38be
000001e0: 4bba 2fbe 103e 963a 9456 043e f82b eabe
000001f0: 7594 97be 53fe 503e 32a8 643d e99c c3bc
00000200: 5938 4e3e 46c3 4bbd dbd8 f93c 68ac 6f3e
00000210: f263 b0bd 61e0 cdbd 402a febd ed4c 8c3d
00000220: e43b 2c3d 0d03 993d 0fac 9ebe 88b8 553c
00000230: 9bc7 083e 9fb5 28bd ba07 eabc bc7e a13d
00000240: c11e 4c3e 0ed2 1c3e 3c11 053e 7a70 41be
00000250: 74b3 e6bd 28f0 0e3e 8e02 2d3e 8516 3a3e
00000260: 194c 03bd f999 b53e f730 833d a38a ebbc
00000270: e27f dd3c 801b 2bbd 5b46 5e3d 5565 87bd
00000280: 4941 1ebd 57a8 893e ed8b 12bd 9200 703e
00000290: 0157 23be 7c7c 093e ec8a 533e f538 9e3d
000002a0: 1c03 743d d2b9 ddbd ae19 a83a ad59 24be
000002b0: de13 803e 8040 86bd 3b98 943c 8328 74be
000002c0: 77f9 3c3e ebd3 78bd b197 8a3e 6b2a 6e3e
000002d0: eac7 143e 7bd5 763b d038 fc3c 4d83 20bd
000002e0: a100 1c3d 67c6 adbd f0bd e9bc 8872 2dbe
000002f0: 49cc 94bc 53a6 193e ae66 513e efc1 5f3e
00000300: 1768 663d 5c69 0bbc a310 6d3d 0192 5e3d
00000310: 118d a8be f920 d73d ffb7 08bc 79c7 30be
00000320: 47ee bbbe 9df8 b03d 9d47 2f3e 6571 08bd
00000330: 6d24 363e 5b70 d73d 1ddf 303c 046d 813e
00000340: b666 e3bd 81be 83bc 9094 03be ac02 49bd
00000350: 3fbe 62be 0f2c 543e 0da9 243d ee14 c13d
00000360: 0842 53be 70cc 8f3e a824 153e 0b1d 52bd
00000370: a59d 0b3e d358 d93c 8945 573e ee9b 623e
00000380: 5ed7 493e f87d 743e 5be6 0d3e 77d1 3b3d
00000390: e97e 943c 4f71 b13d 7736 1cbe 7fa6 c43d
000003a0: 6de3 1d3e b572 c7bc de1f dbbd 4583 5b3b
000003b0: 9209 c33d 0f3a de3c 536a 813e 5bad 113e
000003c0: 3d20 b3bd 6e32 dfbc e346 d93d 1722 163e
000003d0: 670f 03be 1721 e93c 0e3d a4bd e0ce 673d
000003e0: 36f3 82bd 13c4 a6bd 19d4 87be 283d c33d
000003f0: 9c19 f93d d0d5 343d c878 d03d 8b51 3dbc

fc3.bias f4 [10]
-0.5312944 -1.3932977 -0.24567251 0.77751493 1.0967871 0.06871267 0.48636752 -0.73713756
0.47526392 -0.19163048
00000000: e902 08bf 9457 b2bf 9391 7bbe 380b 473f
00000010: 8563 8c3f 3ab9 8c3d 2a05 f93e 0cb5 3cbf
00000020: cb55 f33e c83a 44be
